…
 Layer (type)                   Output Shape         Param #     Connected to
==================================================================================================
 input_1 (InputLayer)           [(None, 64)]         0           []

 tf.split (TFOpLambda)          [(None, 8),          0           ['input_1[0][0]']
                                 (None, 8),
                                 (None, 8),
                                 (None, 8),
                                 (None, 8),
                                 (None, 8),
                                 (None, 8),
                                 (None, 8)]

 keras_layer_1 (KerasLayer)     (None, 8)            40          ['tf.split[0][0]']

 keras_layer_2 (KerasLayer)     (None, 8)            40          ['tf.split[0][1]']

 keras_layer_3 (KerasLayer)     (None, 8)            40          ['tf.split[0][2]']

 keras_layer_4 (KerasLayer)     (None, 8)            40          ['tf.split[0][3]']

 keras_layer_5 (KerasLayer)     (None, 8)            40          ['tf.split[0][4]']

 keras_layer_6 (KerasLayer)     (None, 8)            40          ['tf.split[0][5]']

 keras_layer_7 (KerasLayer)     (None, 8)            40          ['tf.split[0][6]']

 keras_layer_8 (KerasLayer)     (None, 8)            40          ['tf.split[0][7]']

 tf.concat (TFOpLambda)         (None, 64)           0           ['keras_layer_1[0][0]',
                                                                  'keras_layer_2[0][0]',
                                                                  'keras_layer_3[0][0]',
                                                                  'keras_layer_4[0][0]',
                                                                  'keras_layer_5[0][0]',
                                                                  'keras_layer_6[0][0]',
                                                                  'keras_layer_7[0][0]',
                                                                  'keras_layer_8[0][0]']

 dense_1 (Dense)                (None, 1)            65          ['tf.concat[0][0]']

==================================================================================================
Total params: 385
Trainable params: 385
Non-trainable params: 0
__________________________________________________________________________________________________
Epoch 1/10
2023-03-07 15:48:21.083271: I tensorflow/compiler/xla/service/service.cc:173] XLA service 0x20d51e00 initialized for platform CUDA (this does not guarantee that XLA will be used). Devices:
…
