…
 Layer (type)                   Output Shape         Param #     Connected to
==================================================================================================
 input_1 (InputLayer)           [(None, 64)]         0           []

 tf.split (TFOpLambda)          [(None, 8),          0           ['input_1[0][0]']
                                 (None, 8),
                                 (None, 8),
                                 (None, 8),
                                 (None, 8),
                                 (None, 8),
                                 (None, 8),
                                 (None, 8)]

 keras_layer_1 (KerasLayer)     (None, 8)            120         ['tf.split[0][0]']

 keras_layer_2 (KerasLayer)     (None, 8)            120         ['tf.split[0][1]']

 keras_layer_3 (KerasLayer)     (None, 8)            120         ['tf.split[0][2]']

 keras_layer_4 (KerasLayer)     (None, 8)            120         ['tf.split[0][3]']

 keras_layer_5 (KerasLayer)     (None, 8)            120         ['tf.split[0][4]']

 keras_layer_6 (KerasLayer)     (None, 8)            120         ['tf.split[0][5]']

 keras_layer_7 (KerasLayer)     (None, 8)            120         ['tf.split[0][6]']

 keras_layer_8 (KerasLayer)     (None, 8)            120         ['tf.split[0][7]']

 tf.concat (TFOpLambda)         (None, 64)           0           ['keras_layer_1[0][0]',
                                                                  'keras_layer_2[0][0]',
                                                                  'keras_layer_3[0][0]',
                                                                  'keras_layer_4[0][0]',
                                                                  'keras_layer_5[0][0]',
                                                                  'keras_layer_6[0][0]',
                                                                  'keras_layer_7[0][0]',
                                                                  'keras_layer_8[0][0]']

 dense_1 (Dense)                (None, 64)           4160        ['tf.concat[0][0]']

 batch_normalization (BatchNorm  (None, 64)          256         ['dense_1[0][0]']
 alization)

 activation (Activation)        (None, 64)           0           ['batch_normalization[0][0]']

 dense_3 (Dense)                (None, 1)            65          ['activation[0][0]']

==================================================================================================
Total params: 5,441
Trainable params: 5,313
Non-trainable params: 128
__________________________________________________________________________________________________
Epoch 1/10



313/313 - 9408s - loss: 0.7216 - acc: 0.4952 - val_loss: 0.7063 - val_acc: 0.5024 - 9408s/epoch - 30s/step
…
