…
2023-03-02 02:02:12.981936: I tensorflow/core/platform/cpu_feature_guard.cc:193] This TensorFlow binary is optimized with oneAPI Deep Neural Network Library (oneDNN) to use the following CPU instructions in performance-critical operations:  AVX2 FMA
To enable them in other operations, rebuild TensorFlow with the appropriate compiler flags.
Model: "model"
_________________________________________________________________
 Layer (type)                Output Shape              Param #
=================================================================
 input_1 (InputLayer)        [(None, 64)]              0

 keras_layer_1 (KerasLayer)  (None, 6)                 120

 dense_1 (Dense)             (None, 64)                448

 batch_normalization (BatchN  (None, 64)               256
 ormalization)

 activation (Activation)     (None, 64)                0

 dense_2 (Dense)             (None, 1)                 65

=================================================================
Total params: 889
Trainable params: 761
Non-trainable params: 128
_________________________________________________________________
Epoch 1/10
313/313 - 4034s - loss: 0.7009 - acc: 0.5017 - val_loss: 0.6945 - val_acc: 0.5022 - 4034s/epoch - 13s/step
Epoch 2/10
313/313 - 4035s - loss: 0.6950 - acc: 0.5081 - val_loss: 0.6975 - val_acc: 0.5030 - 4035s/epoch - 13s/step
…
