…
Model: "model"
__________________________________________________________________________________________________
 Layer (type)                   Output Shape         Param #     Connected to
==================================================================================================
 input_1 (InputLayer)           [(None, 64)]         0           []

 tf.split (TFOpLambda)          [(None, 16),         0           ['input_1[0][0]']
                                 (None, 16),
                                 (None, 16),
                                 (None, 16)]

 keras_layer_1 (KerasLayer)     (None, 16)           80          ['tf.split[0][0]']

 keras_layer_2 (KerasLayer)     (None, 16)           80          ['tf.split[0][1]']

 keras_layer_3 (KerasLayer)     (None, 16)           80          ['tf.split[0][2]']

 keras_layer_4 (KerasLayer)     (None, 16)           80          ['tf.split[0][3]']

 tf.concat (TFOpLambda)         (None, 64)           0           ['keras_layer_1[0][0]',
                                                                  'keras_layer_2[0][0]',
                                                                  'keras_layer_3[0][0]',
                                                                  'keras_layer_4[0][0]']

 dense (Dense)                  (None, 64)           4160        ['tf.concat[0][0]']

 batch_normalization (BatchNorm  (None, 64)          256         ['dense[0][0]']
 alization)

 activation (Activation)        (None, 64)           0           ['batch_normalization[0][0]']

 dense_1 (Dense)                (None, 1)            65          ['activation[0][0]']

==================================================================================================
Total params: 4,801
Trainable params: 4,673
Non-trainable params: 128
__________________________________________________________________________________________________
Epoch 1/10
313/313 - 7742s - loss: 0.7186 - acc: 0.5024 - val_loss: 0.6941 - val_acc: 0.5404 - 7742s/epoch - 25s/step
…
